ma_veee.onnx (onnx, 206810 bytes, 9 tensors)

layer1.weight f4 [32, 1536]
-0.012121482 -0.023077872 -0.0149251 0.016612716 -0.016600221 0.016277302 0.015886517 0.01199009
-0.015246449 0.004824546 0.013682957 -0.004264672 0.012637068 -0.0007377046 0.004430051 0.014055726
-0.00045438737 0.0079256585 -0.008742132 -0.017416822 0.02246677 0.011080972 -0.0020802447 0.017234398
-0.020534286 0.006920564 0.0065577873 -0.024340542 -0.008577652 0.0052472637 -0.027088584 -0.019972749
0.012425976 -0.0011666099 -0.0052415067 -0.010156308 0.016676307 -0.0036006982 0.00038524595 -0.018361872
-0.022436019 0.022416165 -0.009177191 -0.01789198 -0.009734355 -0.01840752 -0.0009586167 0.005904283
0.010758255 -0.00077012053 0.018012103 -0.0191578 -0.004820497 -0.0018218992 0.016329365 -0.01677753
0.01391369 0.00785726 0.012584499 -0.02203926 0.0015630852 -0.010761344 0.0031612213 -0.007047909
-0.0043445565 0.023405476 -0.029993314 0.01699104 -0.016040608 -0.0041055554 0.03607273 -0.01619102
-0.006972655 -0.0033714222 -0.014025749 0.019517293 -0.0074536554 0.0037954075 0.0046251123 -0.024669977
0.009437694 -0.003923063 0.012753882 -0.004592501 0.017213425 -0.0049551628 0.032900177 -0.017018106
-0.0070627965 0.003523796 -0.02354795 -0.016032765 0.005252882 0.017174223 0.005345854 0.0033012289
0.0060507306 0.01966665 0.011636059 0.0434318 0.012815677 -0.0014537444 0.015152246 0.007868961
0.016261887 0.008307863 -0.026517857 -0.038806435 -0.016518898 -0.012237803 0.0076616644 -0.01222282
0.016228672 0.014626636 -0.006930454 0.0035254604 -0.0058823186 -0.01434719 -0.018144688 0.028141474
-0.019180149 0.0057557025 -0.010243544 0.015665999 -0.0063352855 0.015753414 0.01582717 0.013832526
-0.022650918 -0.003119524 0.006929322 0.00460385 -0.018128822 0.028003253 -0.0066173594 -0.009961574
0.006454545 -0.027372401 0.015655609 0.0030711722 0.0034710907 -0.004658933 0.0026512023 -0.028344627
0.029839655 0.0011291351 0.008721817 0.016265323 0.024041854 -0.018305495 0.0068168286 -0.018489912
0.011188824 0.017159292 0.02320795 -0.004697144 0.012205261 0.019045629 -0.030498136 -0.016287027
-0.009439356 0.0018381716 -0.04783337 -0.01212619 0.0056680837 -0.023534408 0.020738762 -0.0061728167
0.00069661887 0.010993806 0.0034335665 0.00046235012 0.016985022 0.027343767 0.016962355 0.004353805
-0.002760816 0.019617727 0.021870386 -0.0053918688 0.005555849 0.010657105 0.0081810355 0.0033021118
0.027441943 0.025354397 -0.015776267 0.013131509 -0.0167106 0.0085616 -0.022171298 -0.02300953
0.0103506 -0.01613093 0.016264917 0.013958552 -0.012000778 -0.010317432 -0.0009024618 0.0053011985
-0.0116467625 -0.013376178 -0.004751716 -0.0096516125 0.0014317062 0.0020954465 -0.010875002 -0.00053189
0.018010633 -0.008157603 -0.03065169 0.014279693 -0.011610236 -0.011651082 -0.0037865222 0.012885118
-0.029212685 -0.015524222 -0.024881508 0.006739307 0.01912765 0.025045719 0.0031156177 -0.012433663
0.019230532 -0.013379038 -0.0134262005 0.011704657 0.015940052 -0.01781448 0.027592117 0.0073040975
0.0060926857 0.011246122 0.025985813 -0.014497154 -0.019564746 0.012684102 0.012893508 -0.015637364
-0.014525821 -0.02171064 0.020681432 0.012356446 -0.0041627116 -0.023016844 0.018230822 -0.009965913
-0.010215502 -0.0008683632 0.011952865 -0.00929779 0.016949045 -0.009375411 0.0007121898 -0.018183025
00000000: 2e99 46bc ce0d bdbc 6888 74bc 6417 883c
00000010: 30fd 87bc fa57 853c 7124 823c 1572 443c
00000020: 3ecc 79bc 3a17 9e3b 7b2e 603c a9be 8bbb
00000030: b40b 4f3c 8562 41ba f629 913b fd49 663c
00000040: d73a eeb9 9fda 013c 293b 0fbc b9ad 8ebc
00000050: 3b0c b83c f78c 353c b754 08bb 272f 8d3c
00000060: 8537 a8bc e6c5 e23b b5e2 d63b d165 c7bc
00000070: 4889 0cbc 3df1 ab3b e1e8 ddbc e49d a3bc
00000080: 5296 4b3c efe8 98ba f2c0 abbb a566 26bc
00000090: c09c 883c b1f9 6bbb d6fa c939 a36b 96bc
000000a0: becb b7bc 1ba2 b73c ee5b 16bc 3492 92bc
000000b0: d87c 1fbc 5ecb 96bc ae4b 7bba b778 c13b
000000c0: 6443 303c eae1 49ba 1e8e 933c d2f0 9cbc
000000d0: 42f5 9dbb cbcc eeba 29c5 853c 0871 89bc
000000e0: 3ff6 633c bdbb 003c 372f 4e3c ae8b b4bc
000000f0: 70e0 cc3a 5950 30bc 7e2c 4f3b 25f2 e6bb
00000100: c85c 8ebb d7bc bf3c 8ab4 f5bc cb30 8b3c
00000110: 9867 83bc e587 86bb 00c1 133d 08a3 84bc
00000120: df7a e4bb 14f3 5cbb 41cc 65bc bbe2 9f3c
00000130: cb3d f4bb 5fbc 783b 418e 973b b118 cabc
00000140: 8fa0 1a3c 0a8d 80bb a9f5 503c b17c 96bb
00000150: 2b03 8d3c eb5e a2bb 56c2 063d 8e69 8bbc
00000160: 086f e7bb 7def 663b a1e7 c0bc 2557 83bc
00000170: 5e20 ac3b f5b0 8c3c 462c af3b 6e59 583b
00000180: 3545 c63b f41b a13c 2ba5 3e3c 8be5 313d
00000190: d8f8 513c 918b beba 2041 783c d1ec 003c
000001a0: a637 853c b41d 083c fa3b d9bc 7ff3 1ebd
000001b0: a452 87bc 1181 48bc b30e fb3b 3942 48bc
000001c0: fef1 843c 8fa4 6f3c dd18 e3bb 690b 673b
000001d0: 77c0 c0bb 7a10 6bbc 2ba4 94bc f388 e63c
000001e0: b01f 9dbc 559a bc3b 8ad4 27bc fb55 803c
000001f0: 3a98 cfbb 4e0d 813c fba7 813c d2a1 623c
00000200: 6b8e b9bc ee70 4cbb 5e0f e33b e5db 963b
00000210: e582 94bc 1467 e53c 6fd6 d8bb df35 23bc
00000220: a680 d33b 163c e0bc 3140 803c b845 493b
00000230: 3d7b 633b f6a9 98bb cbbf 2d3b fe32 e8bc
00000240: 4b72 f43c 7dff 933a f4e5 0e3c db3e 853c
00000250: 6cf3 c43c 68f5 95bc b45f df3b 2878 97bc
00000260: 5451 373c a591 8c3c 991e be3c 80ea 99bb
00000270: 93f8 473c 9405 9c3c 3ad7 f9bc 5f6c 85bc
00000280: 87a7 1abc ceee f03a ecec 43bd edac 46bc
00000290: 55bb b93b 3bcb c0bc 56e4 a93c 5745 cabb
000002a0: 4d9d 363a 5d1f 343c b005 613b 9567 f239
000002b0: 2c24 8b3c 0900 e03c a3f4 8a3c 5daa 8e3b
000002c0: ceee 34bb 5bb5 a03c 8629 b33c 46ae b0bb
000002d0: d70d b63b 239b 2e3c c009 063c 3e68 583b
000002e0: edcd e03c 06b4 cf3c 3b3d 81bc 8a25 573c
000002f0: abe4 88bc f445 0c3c 95a0 b5bc 7b7e bcbc
00000300: 9095 293c 0325 84bc 013e 853c 69b2 643c
00000310: e99e 44bc 720a 29bc 3093 6cba adb5 ad3b
00000320: 10d2 3ebc c227 5bbc 48b4 9bbb cc21 1ebc
00000330: 17a8 bb3a c253 093b 102d 32bc 896e 0bba
00000340: 098b 933c 78a7 05bc 4119 fbbc 60f5 693c
00000350: dc38 3ebc 2ee4 3ebc 4d27 78bb 1a1c 533c
00000360: 714f efbc 4e59 7ebc 4ed4 cbbc 68d5 dc3b
00000370: 97b1 9c3c ae2c cd3c 642f 4c3b 90b6 4bbc
00000380: 5989 9d3c c133 5bbc 91f9 5bbc e4c4 3f3c
00000390: b694 823c acef 91bc dd08 e23c 3657 ef3b
000003a0: 27a5 c73b a841 383c 33e0 d43c 7985 6dbc
000003b0: 3f46 a0bc fbd0 4f3c 4b3f 533c ee19 80bc
000003c0: b6fd 6dbc 83da b1bc 1b6c a93c b172 4a3c
000003d0: 5b67 88bb d28d bcbc ce58 953c 1248 23bc
000003e0: ec5e 27bc dea2 63ba f3d5 433c c255 18bc
000003f0: b9d8 8a3c 539b 19bc 40b2 3a3a 91f4 94bc

layer1.bias f4 [32]
0.0069900337 0.011365013 0.005518242 -0.018611213 -0.010809527 0.007101506 0.0073607485 0.020419225
0.009785625 -0.008148126 0.002139734 0.012534844 0.015844 0.0015422903 -0.010871016 -0.0121361315
-0.008073574 -0.0073419046 0.0058309683 0.0047403234 0.024700893 0.020879248 -0.006949764 -0.02568223
-0.025002237 0.02508242 0.020434773 -0.014538644 -0.01953547 0.028277153 0.0022034142 0.006998326
00000000: a70c e53b 5234 3a3c 5ed2 b43b 8b76 98bc
00000010: 711a 31bc c0b3 e83b 6f32 f13b 3846 a73c
00000020: e353 203c b87f 05bc c83a 0c3b f25e 4d3c
00000030: 47cb 813c ad26 ca3a 591c 32bc a0d6 46bc
00000040: 0647 04bc 5c94 f0bb b511 bf3b b754 9b3b
00000050: 8759 ca3c f50a ab3c d9ba e3bb 8a63 d2bc
00000060: 7ed1 ccbc a679 cd3c d366 a73c 7e33 6ebc
00000070: da08 a0bc 7da5 e73c 2867 103b 3752 e53b

layernorm1.weight f4 [32]
0.985836 1.006031 1.0158551 1.0137364 1.0390968 0.9900438 1.0132235 1.0034398
0.9957149 0.9919453 0.9939882 1.013787 0.9935118 0.99516565 0.9881138 0.9434615
1.0189018 1.0444006 0.9959604 0.98263705 0.9736277 0.99499154 0.99809086 0.9844016
0.9828671 1.0140885 0.9930157 0.944287 0.9815371 0.9990204 1.0005188 0.9979506
00000000: c05f 7c3f a0c5 803f 8a07 823f 1dc2 813f
00000010: 2001 853f 8373 7d3f 4fb1 813f b770 803f
00000020: 2ce7 7e3f 21f0 7d3f 0376 7e3f c6c3 813f
00000030: ca56 7e3f 2dc3 7e3f 07f5 7c3f b186 713f
00000040: 606b 823f ebae 853f 43f7 7e3f 1a8e 7b3f
00000050: aa3f 793f c4b7 7e3f e282 7f3f be01 7c3f
00000060: 2e9d 7b3f a7cd 813f 4736 7e3f cbbc 713f
00000070: 0446 7b3f cdbf 7f3f 0011 803f b179 7f3f

layernorm1.bias f4 [32]
0.014847007 0.0055611883 0.02509241 0.017289203 0.047861297 -0.012919727 0.0050709764 0.006391561
-4.9561342e-05 0.021471176 -0.01134158 0.009861181 -0.0073917806 -0.012412778 -0.003721453 -0.047078617
0.007832343 0.060455218 0.006752415 0.0020102044 0.007556917 0.009079406 -0.010562696 -0.016236698
0.009196207 0.013810944 -0.004503844 -0.009403588 -0.010656297 0.0051109623 0.03194685 -0.0034654334
00000000: dc40 733c a13a b63b 998e cd3c 16a2 8d3c
00000010: 350a 443d 43ad 53bc 6f2a a63b 4d70 d13b
00000020: 16e0 4fb8 52e4 af3c 09d2 39bc ca90 213c
00000030: c036 f2bb f75e 4bbc 9fe3 73bb 82d5 40bd
00000040: 3a53 003c e49f 773d 5d43 dd3b a2bd 033b
00000050: 04a0 f73b cac1 143c 280f 2dbc d302 85bc
00000060: b0ab 163c 4c47 623c fb94 93bb 8211 1abc
00000070: c097 2ebc dc79 a73b b3da 023d 531c 63bb

blocks.0.fcn_layer.weight f4 [32, 32]
0.1661384 0.0017195125 -0.06388741 -0.07443499 -0.006486815 0.06116073 0.035599053 0.17145385
-0.10672235 0.04749756 0.083887435 0.038264394 0.049216393 0.073243365 0.16879919 -0.14389683
0.19904965 -0.079745434 -0.12910438 0.072794616 -0.0043224036 -0.07124549 0.04522604 0.1770524
0.061750744 -0.047027603 -0.11846247 -0.14513174 -0.16514334 0.06794112 -0.010920422 0.09310204
-0.12749454 -0.006053149 -0.09217224 0.11643965 -0.06797737 0.15689407 0.07828336 -0.119793124
0.13905956 0.018309778 0.16597395 -0.06861148 0.13301206 0.015183439 -0.11327122 0.22799483
0.0021828008 0.1318442 0.004405418 -0.10589234 0.043619722 -0.008144464 0.1224245 0.08588056
0.13143933 -0.18527408 -0.13977203 0.13199195 -0.107284166 0.025295537 -0.07418646 -0.13430518
0.12248552 0.025165634 0.12826845 0.13831252 -0.116040416 0.0802605 0.09037285 0.175986
-0.13422327 -0.030706428 0.045606565 -0.09236019 -0.1743325 -0.038121317 -0.044879556 0.102502294
-0.019370269 0.07294746 -0.107896924 0.08748638 -0.12190607 0.15491852 -0.061182383 0.005701022
-0.037888173 0.108485386 0.0013241781 0.13354631 -0.059411097 0.09086506 0.083434895 -0.14626823
0.14276287 0.21562424 0.18391065 -0.044678845 0.12519592 -0.065881886 -0.114837885 0.122854546
0.10762167 -0.12003292 0.041759465 -0.011848594 -0.04346787 -0.16383973 0.11086167 0.029180052
-0.16139081 0.034404784 0.12073397 0.012825131 0.0093067335 0.012798822 0.06075804 0.16712798
-0.09615773 -0.09374242 -0.051871 -0.012521249 -0.12199462 0.13415472 0.0918132 0.116936125
-0.014034172 -0.035144128 0.033030305 -0.09871966 -0.10325823 0.05335974 -0.03458531 0.032138653
0.011454877 0.13688006 0.15925545 -0.05633468 0.1647287 0.15966207 -0.10015954 -0.103652164
-0.09919238 -0.13797864 -0.06991189 -0.026686125 0.11716855 -0.11552853 -0.1081544 0.11599403
0.015168723 -0.15183821 0.006164608 -0.070220694 0.04444526 0.1297734 -0.089310944 -0.11270283
-0.008019343 0.14449054 0.034978203 -0.17404447 -0.076249875 -0.0043551964 -0.13482553 0.06594705
0.015580035 -0.015216878 -0.14037341 0.025343444 -0.14571743 0.11765046 -0.16079351 -0.20932835
-0.0622742 -0.01173529 0.09437882 0.011509726 0.04071534 -0.064510316 -0.019771423 -0.13121171
0.0740506 0.029195571 -0.0588283 0.11695833 0.0968775 -0.13743953 0.15126231 0.10306641
-0.041205525 -0.016341912 -0.07172757 -0.071868755 -0.09607353 0.15926228 0.0050855814 -0.12455909
-0.08791308 0.046750687 0.022972709 -0.12081752 0.0372038 0.029958036 -0.01534692 0.07156844
0.025518797 0.0038942366 -0.031499054 -0.117164485 0.19133364 -0.02170894 -0.06270023 -0.09074851
-0.005471926 0.0010930991 -0.0012307926 -0.033127982 0.099903174 0.122371085 -0.068547755 -0.05614705
0.043006435 0.099575445 0.19109586 0.077395536 0.16465616 0.13128036 -0.033035602 -0.09303002
-0.07714313 0.01506333 -0.050817627 0.06401692 0.0035876876 -0.11894074 0.019399414 0.0072610267
0.08213784 0.1597185 0.1797229 -0.020694703 0.11057409 -0.13219036 -0.08878074 -0.15410417
-0.11306127 -0.07898106 0.09814514 0.17305103 0.06882426 -0.14503574 -0.04138419 0.026477031
00000000: 2f20 2a3e 4461 e13a 67d7 82bd 5f71 98bd
00000010: 598f d4bb ac83 7a3d 50d0 113d 9991 2f3e
00000020: 3f91 dabd cd8c 423d 2dcd ab3d 20bb 1c3d
00000030: 2197 493d 9e00 963d b2d9 2c3e b159 13be
00000040: acd3 4b3e 9351 a3bd f033 04be 5815 953d
00000050: f3a2 8dbb 28e9 91bd f13e 393d 394d 353e
00000060: 59ee 7c3d 04a0 40bd 749c f2bd 6a9d 14be
00000070: 561b 29be b724 8b3d 92eb 32bc 48ac be3d
00000080: ee8d 02be 7e59 c6bb cdc4 bcbd e977 ee3d
00000090: b837 8bbd d7a8 203e 0753 a03d 1956 f5bd
000000a0: a165 0e3e 63fe 953c 13f5 293e 2d84 8cbd
000000b0: 5034 083e f5c3 783c befa e7bd 7a77 693e
000000c0: 520d 0f3b 2a02 073e 535b 903b 15de d8bd
000000d0: 98aa 323d 5c70 05bc b2b9 fa3d 26e2 af3d
000000e0: 0898 063e 7db8 3dbe 6620 0fbe e628 073e
000000f0: cdb7 dbbd 9638 cf3c 12ef 97bd 4c87 09be
00000100: b0d9 fa3d 2928 ce3c ce58 033e cca1 0d3e
00000110: 99a6 edbd 9e5f a43d 6715 b93d ad35 343e
00000120: d371 09be 0c8c fbbc f3cd 3a3d 5727 bdbd
00000130: 3884 32be 1925 1cbd a0d3 37bd b9ec d13d
00000140: 66ae 9ebc 7a65 953d 10f9 dcbd 0f2c b33d
00000150: e4a9 f9bd f6a2 1e3e 619a 7abd a4cf ba3b
00000160: a130 1bbd 962d de3d 0b90 ad3a 5dc0 083e
00000170: 0d59 73bd 7617 ba3d eadf aa3d 57c7 15be
00000180: 6e30 123e 9acc 5c3e 1353 3c3e 2a01 37bd
00000190: 5c33 003e 15ed 86bd 2030 ebbd 2a9b fb3d
000001a0: c068 dc3d d2d3 f5bd f90b 2b3d 9b20 42bc
000001b0: 5e0b 32bd 9ac5 27be 710b e33d 010b ef3c
000001c0: a243 25be 08ec 0c3d 5f43 f73d 8020 523c
000001d0: 457b 183c 26b2 513c 6cdd 783d 9923 2b3e
000001e0: 58ee c4bd 07fc bfbd b076 54bd ed25 4dbc
000001f0: 51d8 f9bd db5f 093e 8f08 bc3d 357c ef3d
00000200: 95ef 65bc 4af3 0fbd c94a 073d 882d cabd
00000210: 0d79 d3bd be8f 5a3d 53a9 0dbd d2a3 033d
00000220: 3dad 3b3c 492a 0c3e dc13 233e 32bf 66bd
00000230: a4ae 283e 747e 233e 7220 cdbd 9647 d4bd
00000240: 6025 cbbd 464a 0dbe f72d 8fbd dc9c dabc
00000250: 11f6 ef3d 399a ecbd 0e80 ddbd 478e ed3d
00000260: 3c86 783c 7a7b 1bbe 7b00 ca3b decf 8fbd
00000270: 3c0c 363d 51e3 043e a8e8 b6bd bed0 e6bd
00000280: 9063 03bc 54f5 133e 4e45 0f3d b738 32be
00000290: e528 9cbd 09b6 8ebb b40f 0abe 3f0f 873d
000002a0: 6743 7f3c 3650 79bc 0cbe 0fbe 0e9d cf3c
000002b0: f336 15be b9f2 f03d 0ea7 24be 2c5a 56be
000002c0: 3b13 7fbd 6045 40bc af49 c13d 4a93 3c3c
000002d0: 21c5 263d fc1d 84bd aef7 a1bc 5d5c 06be
000002e0: d7a7 973d 8d2b ef3c f2f5 70bd d987 ef3d
000002f0: b667 c63d f3bc 0cbe 82e4 1a3e 7b14 d33d
00000300: 20c7 28bd 79df 85bc e7e5 92bd ed2f 93bd
00000310: 33c2 c4bd a715 233e f3a4 a63b d618 ffbd
00000320: c60b b4bd a67d 3f3d 4331 bc3c 2d6f f7bd
00000330: 0363 183d 8e6a f53c a671 7bbc 7992 923d
00000340: cc0c d13c 7336 7f3b 2705 01bd eff3 efbd
00000350: f7ec 433e f2d6 b1bc fa68 80bd 5bda b9bd
00000360: d84d b3bb 5246 8f3a 8c52 a1ba 35b1 07bd
00000370: 099a cc3d b19d fa3d c462 8cbd 73fa 65bd
00000380: 8427 303d 36ee cb3d a2ae 433e 8d81 9e3d
00000390: a09b 283e 5c6e 063e 5750 07bd 8686 bebd
000003a0: 38fd 9dbd 2fcc 763c 2526 50bd 4e1b 833d
000003b0: 691f 6b3b 3497 f3bd 85eb 9e3c e8ed ed3b
000003c0: e237 a83d 3f8d 233e 4809 383e f087 a9bc
000003d0: ab74 e23d e95c 07be add2 b5bd 7ccd 1dbe
000003e0: ab8c e7bd d2c0 a1bd 5200 c93d 4a34 313e
000003f0: bcf3 8c3d 4084 14be 7882 29bd 5ce6 d83c

blocks.0.fcn_layer.bias f4 [32]
-0.0756288 0.15620172 -0.08222886 -0.124042645 0.17658265 -0.07178181 -0.13345115 -0.02656122
-0.16850346 -0.0947557 -0.101110004 -0.08454935 -0.022124171 -0.02964875 0.006190569 -0.13942583
-0.04891629 0.19114956 0.04196097 -0.1020565 -0.027602574 0.067635074 0.12015214 -0.13893628
-0.14441857 0.12790552 -0.14925008 0.026314639 -0.17668866 0.075692356 0.11065084 0.06357361
00000000: 46e3 9abd 58f3 1f3e 9b67 a8bd 120a febd
00000010: 15d2 343e 5702 93bd 6ba7 08be ea96 d9bc
00000020: 2c8c 2cbe 470f c2bd c312 cfbd 3628 adbd
00000030: c03d b5bc efe1 f2bc 42da ca3b a5c5 0ebe
00000040: 735c 48bd b6bc 433e 44df 2b3d 0003 d1bd
00000050: cb1e e2bc 4284 8a3d 5312 f63d 5045 0ebe
00000060: 76e2 13be aaf9 023e 03d5 18be cc91 d73c
00000070: dfed 34be 9804 9b3d e89c e23d e132 823d

blocks.0.layer_norm.weight f4 [32]
1.260185 1.029 1.2297688 1.032024 0.9462997 0.97308606 0.9047232 1.051602
0.9884822 1.3065012 1.4079328 1.0953434 0.99538296 1.0497602 1.0499585 1.0476214
1.0393702 1.2958002 1.2469923 1.1228068 1.279846 0.9902486 1.3545315 1.2181708
0.99830633 1.0848248 1.0266852 1.0612969 1.0004928 1.0520248 0.99990994 1.0286871
00000000: be4d a13f 46b6 833f 1069 9d3f 5d19 843f
00000010: b240 723f 2b1c 793f f19b 673f e59a 863f
00000020: 2b0d 7d3f 6e3b a73f 2437 b43f 3634 8c3f
00000030: 6bd1 7e3f 8b5e 863f 0a65 863f 7518 863f
00000040: 150a 853f c8dc a53f 729d 9f3f 22b8 8f3f
00000050: fed1 a33f ef80 7d3f 4a61 ad3f 05ed 9b3f
00000060: 0191 7f3f 8adb 8a3f 6c6a 833f 94d8 873f
00000070: 2610 803f c0a8 863f 19fa 7f3f 05ac 833f

blocks.0.layer_norm.bias f4 [32]
0.25619528 0.030012833 0.24757525 0.010392007 -0.045896966 -0.0068034553 -0.091267906 0.036391925
-0.015625708 0.28227073 0.3219107 0.030864855 -0.017748537 0.031303696 0.03051909 0.04929804
0.013194582 0.27386168 0.2589599 0.102360584 0.27253494 -0.03345907 0.30651996 0.2460197
0.016429057 0.052817952 0.01761612 0.03089219 0.0014267507 0.0538739 -0.0013903411 0.01774511
00000000: 072c 833e 79dd f53c 5e84 7d3e 3d43 2a3c
00000010: 75fe 3bbd 85ef debb abea babd b30f 153d
00000020: 7c01 80bc ca85 903e 7bd1 a43e 4bd8 fc3c
00000030: 6165 91bc 4e38 003d 2c03 fa3c beec 493d
00000040: 172e 583c 9937 8c3e 6496 843e 6da2 d13d
00000050: b389 8b3e 610c 09bd 2ff0 9c3e 97ec 7b3e
00000060: 3b96 863c a357 583d ae4f 903c 9e11 fd3c
00000070: cf01 bb3a e1aa 5c3d 1b3c b6ba 315e 913c

last_layer.weight f4 [1, 32]
-0.36275437 0.1898684 -0.35654953 0.18984091 -0.00010425241 0.0074022557 -0.060666263 0.10915858
0.11220296 -0.32415313 -0.37152886 0.1251874 0.16850913 0.10868927 0.20269671 0.15614845
0.18568596 -0.35749614 -0.33399603 0.14491247 -0.32157597 0.011887794 -0.31448823 -0.35213116
-0.06959632 0.1189209 0.14307421 0.15157893 0.02384045 0.07803455 0.050684314 0.026389372
00000000: f1ba b9be dd6c 423e a98d b6be a865 423e
00000010: 16a2 dab8 9f8e f23b 307d 78bd 898e df3d
00000020: aaca e53d 66f7 a5be 0839 bebe 2031 003e
00000030: a88d 2c3e 7b98 de3d ba8f 4f3e 61e5 1f3e
00000040: 7624 3e3e bc09 b7be 8701 abbe ef63 143e
00000050: 9ba5 a4be 06c5 423c 9a04 a1be 894a b4be
00000060: 8488 8ebd cd8c f33d 0c82 123e 8237 1b3e
00000070: 0c4d c33c 94d0 9f3d 5b9a 4f3d 862e d83c
